iris_classifier_state.pt (torch, 2688 bytes, 4 tensors)

layer1.weight f4 [16, 4]
0	0x3ee9821f	0.45607087
1	0xbf2e5d1a	-0.6811081
2	0x3fc7d911	1.5613118
3	0x3f99d3df	1.2017783
4	0xbe6adedd	-0.22936578
5	0xbe1e8858	-0.15481699
6	0xbfec84dc	-1.8478045
7	0xbf9126cd	-1.1339966
8	0x3da4a21b	0.08038732
9	0x3f41b3ae	0.75664794
10	0x3f4be0c2	0.7963983
11	0x3eef89d3	0.4678484
12	0x3e289642	0.16463569
13	0x3e832f5e	0.25622076
14	0x3fbe5530	1.4869747
15	0x3f89b873	1.0759414
16	0x3f46ae16	0.77609384
17	0xbfdacbc3	-1.7093433
18	0x4024ef1f	2.5770948
19	0x3f1ddad8	0.61662054
20	0x3ce83450	0.028345257
21	0xbe324e2e	-0.17412636
22	0x3fd12e05	1.6342169
23	0x3f4a91a0	0.79128456
24	0x3ef937a7	0.48675272
25	0xbfbd7b30	-1.4803219
26	0x401c1624	2.4388514
27	0x3f039aeb	0.5140826
28	0xbe97a67c	-0.29619205
29	0x3f27e1a8	0.655787
30	0xbfe90d75	-1.8207232
31	0xbf792d6d	-0.9733494
32	0x3d9bfbac	0.07616362
33	0x3e95579d	0.29168406
34	0xc017a064	-2.3691645
35	0xbfa121a7	-1.2588395
36	0x3e5b79e9	0.21433224
37	0x3f91782a	1.1364796
38	0xbf2ef2e9	-0.683394
39	0xbe9fb361	-0.31191543
40	0x3f1fa3c5	0.6235927
41	0xbfc0fe10	-1.5077534
42	0x400c2ee7	2.1903627
43	0x3f47085c	0.7774713
44	0xbe192a15	-0.1495746
45	0xbda22908	-0.07917982
46	0xc001f3b5	-2.0304997
47	0xbf93ac17	-1.1536893
48	0xbe2a8e69	-0.16655888
49	0xbd3fe8bf	-0.046852823
50	0xc00fdd97	-2.2478998
51	0xbfbdaae7	-1.481778
52	0x3f0c099f	0.5470218
53	0xbfc68076	-1.5507953
54	0x401173f0	2.2727013
55	0x3f38ef52	0.72240174
56	0x3f1492c6	0.5803646
57	0xbfe977a3	-1.8239635
58	0x40138050	2.3047066
59	0x3e6582cc	0.22413176
60	0x3ecac9ff	0.39607236
61	0xbfa9eaaf	-1.3274745
62	0x40214a3b	2.5201557
63	0x3f390b7c	0.7228315

layer1.bias f4 [16]
0	0xbeb67c54	-0.3564173
1	0x3eb7e3a3	0.3591586
2	0x3cc95311	0.024575742
3	0xbe029864	-0.12753445
4	0xbbeb7351	-0.0071853776
5	0xbec276e9	-0.37981346
6	0x3f083091	0.53199106
7	0x3ee1ebbd	0.44125167
8	0x3e8b00fe	0.27149194
9	0x3d1675e6	0.03673353
10	0xbc12c904	-0.008959059
11	0x3ee19200	0.44056702
12	0x3ecbc6c0	0.39800072
13	0x3ebda09a	0.37036592
14	0xbe072c3c	-0.13200468
15	0x3f256095	0.646005

layer2.weight f4 [3, 16]
0	0xbf8ab8b3	-1.0837616
1	0x3f529cb0	0.82270336
2	0xbd3adbf5	-0.045619924
3	0xbef6a902	-0.48175818
4	0xbfb8d916	-1.4441249
5	0xbf2598e1	-0.646864
6	0xbfb4bddc	-1.412044
7	0x3fb547ae	1.41625
8	0x3f4a8a76	0.79117525
9	0x3f14fdc4	0.58199716
10	0xbf85c8ee	-1.0451944
11	0x3f386a7a	0.7203747
12	0x3f570fb3	0.8400833
13	0xbf6669cd	-0.9000519
14	0xbfaf21ec	-1.3682227
15	0xbfce423e	-1.6113966
16	0xbe1e476b	-0.15456931
17	0x3e56cb39	0.20975961
18	0xbeae1b7c	-0.34005344
19	0xbecece14	-0.403916
20	0x3e859e94	0.26097548
21	0xbeba0382	-0.363308
22	0x3e04164b	0.12899129
23	0x3d814679	0.0631227
24	0x3db62396	0.08893506
25	0xbe9343f7	-0.2876279
26	0x3e7a0455	0.24415715
27	0x3e682b32	0.22672728
28	0x3f00ae50	0.5026598
29	0x3cc65384	0.024209745
30	0x3d9c7586	0.07639603
31	0x3dfbf439	0.12302441
32	0x3f532fb5	0.8249467
33	0xbf9b0d43	-1.2113422
34	0x3e8f2a63	0.27962026
35	0x3f334f88	0.7004323
36	0x3f34369c	0.7039583
37	0x3f25d568	0.6477876
38	0x3e7231ad	0.23651762
39	0xbfa6b430	-1.3023739
40	0xbfa87d43	-1.3163227
41	0xbe151a57	-0.14560829
42	0x3f2cd5c5	0.67513686
43	0xbfa131fc	-1.2593379
44	0xbf8763e8	-1.0577364
45	0x3e627a96	0.22117075
46	0x3e2a430d	0.1662714
47	0x3ef9ea0c	0.48811376

layer2.bias f4 [3]
0	0x3ec2a7ac	0.38018548
1	0x3ddfab31	0.10921324
2	0xbe3480a0	-0.17627192
