iris_classifier_state.pt (torch, 2688 bytes, 4 tensors)

layer1.weight f4 [16, 4]
00000000: b972 a33f c0d0 f7bf a7e5 3240 3c7a e73e
00000010: ed54 05be e6a5 88bd ac09 00c0 11d1 bcbf
00000020: 4ec4 1ebf 6b37 fe3f b873 20c0 420f 09bf
00000030: 5e05 4abf 216c 9e3f c0ca 06c0 d34e 27bf
00000040: 7d6a c1be 735f cbbe 9e81 a0bf c7ff 84bf
00000050: 5755 7dbd a3be d53e c82f d13f 135b 983f
00000060: f145 653f 1f90 14c0 28df 2840 7e80 283f
00000070: e779 e53b 1d6e 883e 4754 c53f 7fa4 a13f
00000080: c7f0 7ebe 5f78 12be 3c2f afbf fda2 84bf
00000090: 6242 e53d eaec 8e3f 17c1 0ac0 a419 95bf
000000a0: 7c97 9d3f 51ee d5bf 9a16 3d40 3ae1 d93e
000000b0: c09d 613e 499e 483d f168 ed3f ca3e 943f
000000c0: 5f21 ef3e cbfd 58be 567c e03f b098 a53f
000000d0: ae79 283e 8123 963f 08b2 04c0 6ada 20bf
000000e0: 12fe 593f 25f6 e1bf 5884 df3f 63db 423f
000000f0: 8ab2 043e 93b5 1f3f a796 e4bf 98d6 5bbf
1.2769386 -1.936058 2.7952669 0.45210445 -0.13020678 -0.066722676 -2.0005903 -1.4751302
-0.6201829 1.9860662 -2.507063 -0.53538907 -0.7891444 1.2376748 -2.1061249 -0.6535465
-0.37776557 -0.3972126 -1.2539556 -1.0390557 -0.061848965 0.41747007 1.6342707 1.1902794
0.8955985 -2.3212965 2.6386204 0.65821064 0.0070030573 0.2664651 1.5416344 1.2628325
-0.24896537 -0.1430373 -1.368629 -1.036224 0.11194302 1.116605 -2.1680353 -1.164845
1.2311854 -1.6713353 2.9545045 0.42554647 0.22032833 0.048979077 1.854765 1.1581662
0.46705148 -0.21190564 1.7537944 1.2937222 0.16452667 1.1729585 -2.0733662 -0.62833273
0.85153306 -1.7653242 1.7462263 0.7611601 0.12958732 0.62386435 -1.7858475 -0.8587432

layer1.bias f4 [16]
00000000: 655c b73d 9e96 013e e054 75be 7200 c23b
00000010: b079 ae3e bada 803e 6a4e ca3e 9b99 ae3e
00000020: 2cee 4f3e 5aae ad3b 4840 f53d 49c3 5dbd
00000030: 5ec5 6abe 17df b43e 06ec 0a3f a7ab afbd
0.0895317 0.12655112 -0.23958158 0.0059204632 0.34077215 0.25166875 0.3951295 0.34101567
0.20305699 0.0053003253 0.11975151 -0.054141317 -0.22926852 0.35326454 0.54266393 -0.08577662

layer2.weight f4 [3, 16]
00000000: 90d7 94bf ab5c 1c3f be11 953f 91fd 9b3f
00000010: bfd2 613e 863e 53bf d019 86bf ac04 4ebf
00000020: f3f1 943e 2d2e 413f 2d35 c3bf 0716 8abf
00000030: 7908 7ebf 693c 093f c3e2 66bf 6172 113f
00000040: 7fa1 dd3e 6a6d 033f b08c 61be 05e1 ebbe
00000050: e375 e93e a7dc 22bf d68c 6b3d da75 f0be
00000060: 2d60 9b3e 31cd 8abd 5c7f 9b3d 2144 a1be
00000070: 6247 9cbe 3725 c6bb 2c67 ad3e a51e 343e
00000080: 8367 e73e d0db bebf b97c fbbe 24ef 87bf
00000090: d1d1 3bbf fa9f 7c3f 16aa 383e ccc1 633f
000000a0: 8033 2abf f0be a3bf a59f 763e ace6 373f
000000b0: 5109 103f cc8f 4ebf c6fc a33e 6bcf 00bf
-1.1628284 0.610789 1.164604 1.2186757 0.2205305 -0.8251728 -1.0476627 -0.8047588
0.29090843 0.75461084 -1.5250603 -1.0787972 -0.9923168 0.53607804 -0.9018976 0.56815153
0.43287274 0.5133883 -0.22026324 -0.46070114 0.45597753 -0.6361794 0.05750736 -0.46964914
0.30346814 -0.067774184 0.07592651 -0.3149729 -0.3052321 -0.006046917 0.33867776 0.17589815
0.4519616 -1.4910831 -0.49118593 -1.0619855 -0.7336703 0.98681605 0.18033633 0.88967586
-0.6648483 -1.2792645 0.24084337 0.7183635 0.56264216 -0.80688167 0.32028788 -0.50316495

layer2.bias f4 [3]
00000000: 5eab c93c 38e8 11be 3613 f1bd
0.024617847 -0.1424874 -0.11771242
